server/nn_server/GTFO.pt (torch_old, 405404 bytes, 37 tensors)

conv1.weight f4 [8, 1, 3, 3]
0.25756535 0.31752607 0.03415908 -0.1472774 -0.20873612 -0.024922252 0.28080484 -0.049452182
-0.25030634 0.04850906 0.01101776 -0.17781702 -0.2584404 0.11636782 0.086580634 -0.33509633
0.10253836 -0.12517591 0.33129597 0.2546609 0.1393597 0.018648677 -0.21252248 -0.17475808
-0.24348165 0.22840577 0.29694745 -0.14675997 -0.0885497 -0.1685867 0.040075637 0.12486475
0.25239128 0.17776439 0.20169736 0.15261826 -0.16531955 -0.14828876 0.07193102 -0.20957977
-0.14020438 0.16617858 -0.14255184 -0.2246831 -0.29995927 0.010899578 0.21531376 0.30127054
-0.04191087 -0.2303455 -0.30023146 -0.073164634 0.11345244 0.2135286 0.29558825 0.21298566
-0.3092603 0.071082525 -0.08670285 0.14926586 -0.16314857 0.24305725 -0.25653708 0.14832792
0.18882716 0.1763029 -0.062171116 -0.29915357 0.044100888 0.0077541093 -0.2239967 -0.24690032
00000000: 9bdf 833e c792 a23e 64ea 0b3d e3cf 16be
00000010: ecbe 55be c029 ccbc a7c5 8f3e 5f8e 4abd
00000020: 2728 80be 70b1 463d d683 343c aa15 36be
00000030: 4d52 84be 4052 ee3d 3051 b13d bf91 abbe
00000040: a2ff d13d 1d2e 00be a09f a93e ea62 823e
00000050: 4fb4 0e3e 1cc5 983c 7e9f 59be c8f3 32be
00000060: 4153 79be 34e3 693e 7f09 983e 3f48 16be
00000070: 8c59 b5bd fea1 2cbe 5a26 243d 17b9 ff3d
00000080: 6e39 813e de07 363e c189 4e3e f647 1c3e
00000090: 8749 29be 02d9 17be 9250 933d 149c 56be
000000a0: bd91 0fbe b82a 2a3e 1cf9 11be 5413 66be
000000b0: 4394 99be 2594 323c 367b 5c3e 2240 9a3e
000000c0: bbaa 2bbd b1df 6bbe f0b7 99be 57d7 95bd
000000d0: c159 e83d 3ea7 5a3e 5857 973e ea18 5a3e
000000e0: 5e57 9ebe b793 913d 4491 b1bd 26d9 183e
000000f0: 6b10 27be 00e4 783e d458 83be 46e3 173e
00000100: e85b 413e bf88 343e 24a7 7ebd a82a 99be
00000110: 22a3 343d 2f16 fe3b 645f 65be 70d3 7cbe

conv1.bias f4 [8]
0.31432953 -0.039925303 0.1637576 0.22971542 0.16052371 0.049239367 0.23685516 -0.09210976
00000000: cdef a03e b788 23bd 13b0 273e 853a 6b3e
00000010: 5460 243e 38af 493d 298a 723e 0ba4 bcbd

conv2.weight f4 [16, 8, 3, 3]
0.0262476 -0.00023114856 -0.0015721994 0.10584644 0.07540908 -0.10397281 0.009656737 -0.09881758
-0.06780445 -0.11640405 0.10309056 0.036961798 0.04122056 -0.080209956 -0.08079153 -0.046866022
-0.11163309 0.023151334 0.09519843 -0.07988808 -0.033866867 0.10067011 -0.052242804 0.07578121
0.04606751 -0.06110266 -0.023358578 0.06554618 -0.07310383 0.113392405 0.005611456 -0.06983325
-0.041984648 -0.08121738 0.105594195 0.060038757 -0.056433763 -0.02322256 -0.0030414069 -0.028073175
0.03763181 -0.07115288 -0.06453145 -0.051396284 0.08619396 -0.0098427 0.111375645 0.044552688
0.06011602 -0.05161333 -0.032550853 0.019030249 0.0018840606 0.108841345 0.0006226283 0.0762815
0.055521727 0.016106348 -0.089747414 0.02195851 -0.07621883 -0.06331801 0.04354433 0.06822196
-0.03526117 -0.10978652 -0.07847298 -0.09274374 0.11486384 0.1047892 0.09908742 -0.08128134
-0.0058307853 -0.024947938 0.06069591 -0.084053434 -0.007226925 -0.10676784 0.082833886 0.07595919
-0.036493845 0.012385377 -0.009996522 0.093730144 -0.09273751 0.091130145 -0.07679388 -0.089431114
-0.09159013 -0.0831479 -0.035758916 0.06676207 -0.079388775 0.07558863 -0.11275106 0.044104233
-0.08370331 -0.05989774 0.06562261 0.057184596 -0.040127866 -0.09038608 -0.11411587 0.08893433
-0.04454747 0.036076125 0.089948 0.09603816 0.0200294 -0.015259627 -0.07926976 0.09300512
0.08569949 -0.01435943 -0.09676517 -0.11223271 -0.07208108 -0.09989769 0.009715463 0.059501704
0.093006834 -0.004126859 0.037335638 0.115132526 -0.039133552 -0.057894677 0.029146433 -0.028916743
-0.10263539 0.10222318 -0.106723025 0.08720275 -0.06548994 0.002407243 0.013135815 -0.08827269
-0.08127551 -0.0272042 -0.08619361 0.09067773 0.109049864 0.059216067 -0.065200455 -0.0752895
-0.092177145 -0.04992405 0.02068896 -0.057657648 -0.068714604 -0.0077143917 -0.004967962 0.11047824
0.027078925 -0.013010265 -0.025235046 0.014416079 -0.11296772 0.11375108 0.065424375 -0.048443884
0.10364515 -0.07561166 -0.00069688854 0.082877345 0.05596995 0.03477157 -0.06983573 0.090476945
-0.0024252536 0.11614385 -0.017953211 0.04503587 0.106157765 0.086727455 0.04564476 0.11415593
0.02677153 0.06335765 0.02270924 -0.095839076 0.094143964 0.06338433 -0.11452175 0.07154744
0.01388179 0.051149618 0.014346159 -0.12179906 -0.11590006 -0.08971655 0.01231942 0.07552244
-0.069390744 -0.021954883 0.008166069 0.10008371 -0.07220584 -0.06677195 -0.115212 -0.030546442
-0.09288729 -0.034918133 -0.0030437731 0.014512162 -0.038311727 -0.096340306 0.01633767 -0.0481207
0.06105948 0.09227179 -0.07476891 0.02241536 0.0025135584 0.06776863 -0.009805176 -0.066071
-0.053609703 0.00053601275 -0.024525203 0.026338827 0.057951983 0.115889795 0.08459116 0.022639465
0.08535514 0.05889546 0.017712055 0.090003006 -0.00928913 -0.0076893084 -0.0614997 -0.060501352
-0.020292906 -0.10600043 0.015656225 0.02366213 0.075047076 -0.07547378 0.08795925 0.022047048
0.011937918 0.0934944 0.03302377 0.10138237 -0.048376665 0.00408061 -0.07263522 0.09462825
-0.048663564 0.080418855 -0.058802836 0.07375224 -0.048600335 0.032053553 0.11061276 0.09138031
00000000: 3505 d73c 7860 72b9 4212 ceba 05c6 d83d
00000010: 1370 9a3d b2ef d4bd 4a37 1e3c df60 cabd
00000020: 0fdd 8abd 3f65 eebd 2521 d33d 4165 173d
00000030: e4d6 283d 1e45 a4bd 0876 a5bd 96f6 3fbd
00000040: e49f e4bd dea7 bd3c 65f7 c23d 5d9c a3bd
00000050: fcb7 0abd 212c ce3d 8dfc 55bd 2e33 9b3d
00000060: 49b1 3c3d c846 7abd 7d5a bfbc 133d 863d
00000070: 76b7 95bd 473a e83d 4ee0 b73b bc04 8fbd
00000080: 18f8 2bbd 4c55 a6bd c541 d83d 33eb 753d
00000090: 1727 67bd 3d3d bebc 5752 47bb b7f9 e5bc
000000a0: d023 1a3d 9ab8 91bd 1129 84bd e984 52bd
000000b0: 7586 b03d 4743 21bc ea18 e43d e17c 363d
000000c0: 373c 763d 8068 53bd 0b54 05bd 53e5 9b3c
000000d0: 95f2 f63a 36e8 de3d e137 233a 7a39 9c3d
000000e0: c06a 633d 76f1 833c 7ecd b7bd 55e2 b33c
000000f0: 9e18 9cbd dfac 81bd 8a5b 323d f4b7 8b3d
00000100: 046e 10bd c1d7 e0bd 71b6 a0bd 6ef0 bdbd
00000110: bc3d eb3d b89b d63d 58ee ca3d d576 a6bd
00000120: 2c10 bfbb 9e5f ccbc 469c 783d 3524 acbd
00000130: d7cf ecbb 19a9 dabd d0a4 a93d 7e90 9b3d
00000140: 927a 15bd 09ec 4a3c 74c8 23bc 97f5 bf3d
00000150: 2aed bdbd 71a2 ba3d 1c46 9dbd a927 b7bd
00000160: 9b93 bbbd 7249 aabd f177 12bd 8dba 883d
00000170: 9596 a2bd 36ce 9a3d 07ea e6bd a4a6 343d
00000180: a46c abbd 5557 75bd 2665 863d 653a 6a3d
00000190: 1e5d 24bd 561c b9bd 95b5 e9bd 3423 b63d
000001a0: 6877 36bd 8fc4 133d a836 b83d a8af c43d
000001b0: b214 a43c 8403 7abc 2f58 a2bd 7879 be3d
000001c0: 3783 af3d d143 6bbc d12c c6bd 43da e5bd
000001d0: 3f9f 93bd 2997 ccbd 9b2d 1f3c 0fb8 733d
000001e0: 5e7a be3d 9a3a 87bb 41ed 183d 9aca eb3d
000001f0: 814a 20bd f822 6dbd 80c4 ee3c cee2 ecbc
00000200: 8132 d2bd 635a d13d 9a91 dabd 5b97 b23d
00000210: 971f 86bd d6c2 1d3b 9a37 573c 50c8 b4bd
00000220: c673 a6bd 58db debc 4786 b0bd 3fb5 b93d
00000230: 8955 df3d 8c8c 723d d187 85bd 6231 9abd
00000240: 5fc7 bcbd 297d 4cbd e57b a93c 6d2a 6cbd
00000250: 3eba 8cbd 02c9 fcbb 49ca a2bb 6a42 e23d
00000260: 9fd4 dd3c 0229 55bc bab9 cebc 6b31 6c3c
00000270: 9f5b e7bd 54f6 e83d 37fd 853d 186d 46bd
00000280: e943 d43d 49da 9abd 66af 36ba 99bb a93d
00000290: bf40 653d a26c 0e3d 0906 8fbd fa4b b93d
000002a0: 01f1 1ebb d4dc ed3d 9d12 93bc 8877 383d
000002b0: 3e69 d93d 2a9e b13d 00f6 3a3d 96ca e93d
000002c0: f84f db3c a8c1 813d ba08 ba3c 4747 c4bd
000002d0: 8dce c03d a5cf 813d 618a eabd 7787 923d
000002e0: 7370 633c 4382 513d 270c 6b3c c971 f9bd
000002f0: 035d edbd 50bd b7bd 65d7 493c 82ab 9a3d
00000300: bc1c 8ebd bada b3bc faca 053c b0f8 cc3d
00000310: a8e0 93bd bbbf 88bd 45f4 ebbd 883c fabc
00000320: b13b bebd 5106 0fbd 0a7a 47bb 6bc4 6d3c
00000330: c2ec 1cbd 114e c5bd 94d6 853c 361a 45bd
00000340: 8119 7a3d fef8 bc3d 7120 99bd 6ba0 b73c
00000350: 83ba 243b 48ca 8a3d e4a5 20bc 3c50 87bd
00000360: d995 5bbd 3583 0c3a 14e9 c8bc 86c4 d73c
00000370: 0f5f 6d3d a157 ed3d 213e ad3d 6676 b93c
00000380: adce ae3d 5e3c 713d df18 913c 7f53 b83d
00000390: 6f31 18bc 98f6 fbbb 1ce7 7bbd 44d0 77bd
000003a0: 4f3d a6bc c116 d9bd 7c41 803c 15d7 c13c
000003b0: 48b2 993d ff91 9abd fb23 b43d 039c b43c
000003c0: 4297 433c fe79 bf3d ef43 073d 8fa1 cf3d
000003d0: 9c26 46bd a3b6 853b c6c1 94bd 75cc c13d
000003e0: 7253 47bd a4b2 a43d 3edb 70bd 6a0b 973d
000003f0: 2511 47bd 964a 033d f188 e23d 9a25 bb3d

conv2.bias f4 [16]
0.111722164 0.04048649 0.08685509 -0.05091306 -0.086657986 -0.023014624 0.100986525 -0.07175753
-0.0938945 -0.04380802 0.061745606 -0.02919555 0.07601981 -0.054619953 -0.03982983 -0.08461464
00000000: 97ce e43d 29d5 253d 15e1 b13d 368a 50bd
00000010: be79 b1bd 2a89 bcbc 06d2 ce3d 9df5 92bd
00000020: c24b c0bd 0a70 33bd f6e8 7c3d 822b efbc
00000030: 46b0 9b3d 2cb9 5fbd 9b24 23bd 714a adbd

conv3.weight f4 [32, 16, 3, 3]
-0.030449113 -0.06828554 -0.077586964 -0.046590112 0.025016267 0.04799755 0.062401295 0.012708026
0.043951754 -0.03879124 -0.07022829 -0.064747356 0.029601501 -0.07668017 0.079977624 0.022832831
-0.01358526 0.012286231 0.06505956 -0.07007724 -0.013311694 0.030759018 0.029999048 -0.045939162
0.027390301 -0.075820185 0.073245786 -0.00043862712 0.02399459 0.020284455 -0.039596386 0.06185723
-0.041534316 0.009731307 0.06795879 -0.019480476 -0.013846189 0.07467946 0.012102123 -0.041626148
0.031423263 0.05139421 -0.00923064 0.04185162 -0.023928378 -0.038677804 -0.046493087 0.059381276
-0.021105452 0.05221064 -0.02665528 -0.056969814 -0.016403338 -0.07573053 0.04653687 0.023951164
0.05629916 0.017309546 -0.0012476023 0.00021041745 0.050461277 0.06502465 0.018653633 -0.018966096
-0.03334602 0.028655289 -0.07927289 0.027444478 0.041478705 -0.07532745 -0.07670478 0.00021356308
-0.017274002 0.06955181 -0.06057433 -0.0241743 0.05326532 0.027102256 -0.015569501 -0.025211493
-0.03021247 -0.05874559 -0.05811877 -0.001961211 0.07991877 -0.033076633 0.03215548 -0.063410476
-0.06298672 -0.074898235 0.081951596 0.01509539 -0.025494408 0.041845504 -0.06110053 -0.07226476
0.021908019 -0.06913089 0.025435615 -0.074178495 -0.0017446323 -0.040621568 0.04254029 -0.08195991
0.0026759128 0.032834526 -0.00019379401 0.082496904 0.06716428 0.026843267 0.056179505 -0.08111522
-0.01645664 0.076347776 0.0054480527 0.06799506 -0.031560995 0.05883258 0.0012649377 -0.048549198
-0.022505576 0.032660075 0.045653798 0.004542019 -0.051789097 -0.010511418 0.008821303 0.012023855
0.08069923 0.048818197 -0.07143948 0.06760645 -0.083485916 -0.03540758 0.07541604 -0.0012575459
0.05443317 -0.03404155 0.07651687 0.008745318 0.01162362 -0.034497775 -0.01671031 -0.08178055
0.082473196 -0.06776609 -0.068187535 0.06580781 -0.022651333 -0.017261058 -0.047850758 -0.048081197
-0.035571396 0.020633802 -0.06401769 0.044621557 -0.0030111244 0.041875254 -0.0008753415 0.06282252
-0.008676696 -0.016212273 -0.040741704 0.0037798602 0.037002273 0.07147323 -0.032000415 0.0052584424
-0.07913815 0.067033395 -0.041495305 -0.0720569 -0.0011976357 0.07944519 0.03732192 -0.035473716
0.049485356 0.05008852 0.080339774 0.07729715 -0.005993304 0.02114922 -0.015040079 -0.02156206
0.06415137 0.008853401 0.062465783 0.0022134052 -0.046548583 -0.0052036014 0.045876693 -0.0581903
0.077353016 0.015436272 0.05261418 -0.04750447 0.06842577 -0.053178877 -0.04286672 -0.063348636
0.0032501323 0.02632916 -0.036113467 -0.0631162 0.04826721 0.083092116 0.026112128 0.09207748
0.08307239 0.090109855 0.08798781 0.03859411 -0.034121435 0.07204474 0.019500716 0.079737484
-0.06276891 0.0398488 0.044292253 -0.07564755 -0.06722339 0.073532544 0.077625796 -0.06806744
0.07893951 -0.04918047 0.053803764 0.04121706 0.036493685 0.039399724 0.0481195 -0.06499061
-0.05288198 0.0262223 -0.034546092 -0.016627373 -0.054410633 0.023365082 -0.020724872 0.0121790245
0.04301107 0.055605665 -0.05722073 0.028135791 -0.0031449422 0.02620828 -0.019327786 0.02816538
-0.054707818 0.018922143 -0.03706466 0.045077868 -0.008748048 0.01313854 0.053344794 -0.004210686
00000000: 6b70 f9bc 4ad9 8bbd eae5 9ebd 46d5 3ebd
00000010: eaee cc3c 1499 443d 8098 7f3d 5335 503c
00000020: c106 343d 90e3 1ebd dad3 8fbd 439a 84bd
00000030: d97e f23c 7e0a 9dbd 4fcb a33d eb0b bb3c
00000040: b694 5ebc 304c 493c f23d 853d a884 8fbd
00000050: 4b19 5abc 56fa fb3c 90c0 f53c b42a 3cbd
00000060: a061 e03c 9d47 9bbd e301 963d 89f7 e5b9
00000070: 4d90 c43c 962b a63c d22f 22bd 025e 7d3d
00000080: e31f 2abd 0f70 1f3c fa2d 8b3d 8595 9fbc
00000090: 20db 62bc 8bf1 983d fc47 463c 2e80 2abd
000000a0: aeb5 003d bc82 523d 1c3c 17bc 9b6c 2b3d
000000b0: 7205 c4bc 9e6c 1ebd 896f 3ebd c839 733d
000000c0: 57e5 acbc d3da 553d 2c5c dabc 2e59 69bd
000000d0: 4b60 86bc 9c18 9bbd 729d 3e3d 3b35 c43c
000000e0: f399 663d c0cc 8d3c 9686 a3ba 81a3 5c39
000000f0: 7cb0 4e3d a52b 853d 81cf 983c c95e 9bbc
00000100: d695 08bd 7fbe ea3c d359 a2bd 3ed3 e03c
00000110: 93e5 293d 4745 9abd 6517 9dbd e7ef 5f39
00000120: 3582 8dbc 2e71 8e3d ca1c 78bd 2e09 c6bc
00000130: bc2c 5a3d 8d05 de3c 3817 7fbc 5588 cebc
00000140: 2480 f7bc 379f 70bd f30d 6ebd a987 00bb
00000150: 74ac a33d 5d7b 07bd 77b5 033d 5add 81bd
00000160: 2eff 80bd 3f64 99bd 3dd6 a73d a852 773c
00000170: a6d9 d0bc 3166 2b3d 8d44 7abd 8cff 93bd
00000180: 7278 b33c 7f94 8dbd 5a5e d03c e5ea 97bd
00000190: 25ac e4ba cd62 26bd ba3e 2e3d 99da a7bd
000001a0: 5e5e 2f3b 7f7d 063d 2f35 4bb9 23f4 a83d
000001b0: 6d8d 893d 69e6 db3c 7b1c 663d bd1f a6bd
000001c0: 13d0 86bc 395c 9c3d 9485 b23b fe40 8b3d
000001d0: 1a46 01bd 6efa 703d 44cc a53a 86db 46bd
000001e0: 9d5d b8bc 92c6 053d 7aff 3a3d 38d5 943b
000001f0: ce20 54bd 1538 2cbc 3a87 103c b4ff 443c
00000200: a345 a53d 97f5 473d dd4e 92bd 4075 8a3d
00000210: aafa aabd 8a07 11bd ba73 9a3d 3dd4 a4ba
00000220: 51f5 5e3d 276f 0bbd e0b4 9c3d 8648 0f3c
00000230: ff70 3e3c 8a4d 0dbd 0fe4 88bc 907c a7bd
00000240: b5e7 a83d f3c8 8abd e8a5 8bbd 3fc6 863d
00000250: 4a8f b9bc 1067 8dbc 28ff 43bd caf0 44bd
00000260: 50b3 11bd 3808 a93c b51b 83bd 18c5 363d
00000270: 4956 45bb 6385 2b3d 2c77 65ba 18a9 803d
00000280: b328 0ebc 9acf 84bc c6e0 26bd 88b7 773b
00000290: b28f 173d 8f60 923d de12 03bd 034f ac3b
000002a0: 2f13 a2bd ce48 893d fbf6 29bd 9192 93bd
000002b0: fcf9 9cba 29b4 a23d dfde 183d e34c 11bd
000002c0: 28b1 4a3d 9f29 4d3d 2e89 a43d f84d 9e3d
000002d0: 7a63 c4bb 2141 ad3c aa6a 76bc eba2 b0bc
000002e0: cb61 833d db0d 113c 1fdc 7f3d c70e 113b
000002f0: baa9 3ebd f982 aabb 33e9 3b3d f458 6ebd
00000300: 426b 9e3d 6be8 7c3c f781 573d 0c94 42bd
00000310: cf22 8c3d 18d2 59bd 0495 2fbd eebc 81bd
00000320: 2c00 553b 40b0 d73c b7eb 13bd 1143 81bd
00000330: d7b3 453d 332c aa3d 1ae9 d53c 1e93 bc3d
00000340: db21 aa3d 848b b83d f432 b43d dc14 1e3d
00000350: ebc2 0bbd 318c 933d f7bf 9f3c 684d a33d
00000360: fc8c 80bd 7f38 233d cb6b 353d 1aed 9abd
00000370: 6bac 89bd 3b98 963d 46fa 9e3d f166 8bbd
00000380: 0aab a13d 7671 49bd 5661 5c3d 38d3 283d
00000390: 677a 153d 9b61 213d f418 453d cc19 85bd
000003a0: c69a 58bd 26d0 d63c 3480 0dbd 2136 88bc
000003b0: afdd 5ebd 2168 bf3c 35c7 a9bc 888a 473c
000003c0: 602c 303d c4c2 633d 4960 6abd 087d e63c
000003d0: 601b 4ebb bfb2 d63c 4e55 9ebc 15bb e63c
000003e0: 4e15 60bd 9c02 9b3c 1dd1 17bd 92a3 383d
000003f0: f953 0fbc 0843 573c 1280 5a3d cbf9 89bb

conv3.bias f4 [32]
-0.07861749 0.067818694 0.034497235 -0.019917108 0.06549599 0.011709847 0.07668616 0.0024468005
-0.006212534 -0.038650837 0.01600253 -0.07419825 0.056150544 -0.014436932 -0.015216821 0.034596752
0.0060535544 0.07071569 -0.05067836 0.04739593 -0.0698757 0.003933002 0.038792588 0.016267594
0.012764172 -0.025349375 0.07764975 0.044020955 -0.010517939 -0.07096931 -0.0046472987 0.01665441
00000000: 3502 a1bd 87e4 8a3d f94c 0d3d 3429 a3bc
00000010: c322 863d a8da 3f3c a20d 9d3d 805a 203b
00000020: 8392 cbbb 5750 1ebd bd17 833c 41f5 97bd
00000030: 1dfe 653d e288 6cbc f94f 79bc 53b5 0d3d
00000040: e55c c63b 63d3 903d 1d94 4fbd 3c22 423d
00000050: fe1a 8fbd 69e0 803b fae4 1e3d 9e43 853c
00000060: d120 513c 7ea9 cfbc d506 9f3d 514f 343d
00000070: 6f53 2cbc 5c58 91bd 5e48 98bb d46e 883c

conv4.weight f4 [64, 32, 3, 3]
-0.041716572 -0.0067183976 -0.056874428 -0.051136427 0.024807282 0.015499842 -0.051427573 -0.0098074945
0.038915884 0.007595645 -0.016397351 -0.039435197 -0.033107974 -0.02617324 -0.056045208 -0.06004517
-0.03406714 0.041705944 -0.0153904315 -0.03575959 0.046256375 0.021877162 -0.04991431 0.047628336
-0.04568381 0.02417574 0.052768726 -0.044999257 -0.023826139 0.05058729 0.047736283 0.03015071
-0.028108325 0.0040684757 -0.017905926 -0.015827307 -0.0459459 0.030361038 0.0008614995 -0.049172435
0.026365312 -0.0036841226 -0.010820503 0.049617868 -0.0091433 0.020799804 0.057091683 0.048214477
0.009475532 0.019178053 -0.03895139 0.054122064 0.039535187 0.025427185 0.04436254 -0.049026683
0.028666958 -0.051863212 0.029229145 -0.00441601 -0.013570231 -0.0008439285 0.033345476 -0.052973244
0.05222982 0.025450192 0.05768738 -0.046553537 -0.0103575215 0.02852142 -0.031927858 0.03414718
-0.0022288272 0.056473333 -0.05766628 0.028830146 0.0048686946 -0.01573479 0.02456101 0.006776046
0.032944784 0.055892386 0.04251367 0.0007007082 -0.025722127 0.05325097 -0.03744708 0.048154168
0.0020887947 -0.023313416 -0.024810009 0.028554803 -0.050779298 0.0035897708 0.011521387 0.012545114
0.0020574233 -0.0062435037 -0.00028718318 -0.020422395 -0.027225215 -0.037303038 -0.011738002 -0.024075495
-0.04689005 0.016399106 0.046724197 0.036100395 -0.010366108 0.039999396 -0.0036043217 -0.03170025
0.004685882 -0.048403706 0.0038231248 0.05080292 -0.03455778 0.0067900615 0.020436786 -0.051712837
0.007902547 -0.013534997 0.028561842 -0.05155692 0.055598542 -0.03042837 0.034918245 -0.058076337
-0.025342742 0.032159064 0.04809295 0.0070309364 -0.04073112 -0.0051172483 -0.02423147 0.049141802
-0.025222583 -0.02861008 0.025591087 0.03541693 -0.0051002395 -0.052728366 -0.0314918 0.046526585
-0.05515998 -0.049976103 0.019360572 -0.05569581 -0.052223574 -0.013545534 -0.03345944 -0.042630363
-0.03318654 0.012053978 -0.0017743328 0.029690288 0.03640381 0.04751943 -0.045891013 0.0108516645
-0.039153654 0.012180491 -0.0036669602 0.043918643 -0.030944757 -0.016549546 -0.055341702 -0.0292212
0.012272537 0.03079631 0.05204805 -0.03631249 0.006842993 -0.0053829695 -0.018297838 0.02909146
-0.028082361 0.036204517 -0.029072203 0.04537899 0.049095955 -0.016707793 -0.033580724 0.022081079
0.034709517 0.027309531 0.042971313 -0.037539236 -0.016026102 0.01860062 0.03239789 -0.03880888
-0.048096232 -0.055934105 -0.057288095 0.02475767 -0.0063272733 0.00015368445 -0.03599546 0.02503459
0.0031131587 -0.012054262 0.054235294 0.013381166 -0.02933033 -0.05639436 -0.021519663 0.006867056
-0.04643488 0.05520955 0.0314316 0.0455638 0.031293053 -0.010130386 0.02703033 0.022269301
0.0018599639 0.027079284 -0.04399138 -0.02442089 0.018426446 -0.039480027 0.0062506683 -0.030272298
-0.053614367 0.0133184865 0.009361037 -0.0021034768 -0.018482342 0.055409975 0.03454088 -0.029528532
0.02892138 -0.018287614 -0.037424203 -0.0032571533 0.042335305 -0.010321411 -0.037608285 -0.050536275
0.022593202 -0.022085516 0.019911444 0.041132744 -0.037170198 0.05211218 -0.031919654 -0.02233772
-0.026448077 -0.040008716 0.009164801 0.012872402 -0.030052809 -0.008816696 -0.0380172 -0.008704127
00000000: ffde 2abd 0126 dcbb 29f5 68bd 6e74 51bd
00000010: a438 cb3c 0df3 7d3c b8a5 52bd 9daf 20bc
00000020: 4366 1f3d e3e4 f83b bd53 86bc cd86 21bd
00000030: 3a9c 07bd 4369 d6bc a98f 65bd edf1 75bd
00000040: fc89 0bbd dad3 2a3d 2628 7cbc a678 12bd
00000050: 5377 3d3d bc37 b33c f372 4cbd ee15 433d
00000060: f21e 3bbd 340c c63c 0524 583d 2451 38bd
00000070: 092f c3bc 9e34 4f3d 1f87 433d 9ffe f63c
00000080: 6e43 e6bc d950 853b 73af 92bc 45a8 81bc
00000090: c531 3cbd b6b7 f83c 41d6 613a 0969 49bd
000000a0: 11fc d73c 5271 71bb 7b48 31bc 1b3c 4b3d
000000b0: c8cd 15bc 5a64 aa3c f8d8 693d 8b7c 453d
000000c0: 433f 1b3c 4b1b 9d3c 7e8b 1fbd 19af 5d3d
000000d0: a6ef 213d ac4c d03c 7fb5 353d 34d0 48bd
000000e0: f8d6 ea3c 856e 54bd f671 ef3c 2db4 90bb
000000f0: ad55 5ebc 153b 5dba 4495 083d 79fa 58bd
00000100: f0ee 553d ec7c d03c 9a49 6c3d ecae 3ebd
00000110: 98b2 29bc c1a5 e93c c9c6 02bd eadd 0b3d
00000120: 8411 12bb 9550 673d 7a33 6cbd 332d ec3c
00000130: 9289 9f3b 3fe6 80bc 2c34 c93c 9809 de3b
00000140: 1cf1 063d 6aef 643d d022 2e3d bbaf 373a
00000150: 36b7 d2bc b01d 5a3d 1c62 19bd 4e3d 453d
00000160: 29e4 083b c7fb bebc 5c3e cbbc c3eb e93c
00000170: f4fd 4fbd 5c42 6b3b 33c4 3c3c 068a 4d3c
00000180: d6d5 063b 4e96 ccbb 1391 96b9 de4c a7bc
00000190: 6a07 dfbc 12cb 18bd c050 40bc f939 c5bc
000001a0: c80f 40bd 6b57 863c df61 3f3d 02de 133d
000001b0: 9cd6 29bc 68d6 233d 7c36 6cbb 1fd8 01bd
000001c0: 078c 993b f742 46bd 648d 7a3b b916 503d
000001d0: 758c 0dbd 2a7f de3b 0c6b a73c d7d0 53bd
000001e0: af79 013c e4c1 5dbc 86fa e93c 592d 53bd
000001f0: 4cbb 633d eb44 f9bc 6f06 0f3d 74e1 6dbd
00000200: 959b cfbc 39b9 033d 1dfd 443d c563 e63b
00000210: add5 26bd 97ae a7bb 1381 c6bc ea48 493d
00000220: 979f cebc b05f eabc 66a4 d13c 5811 113d
00000230: e91f a7bb b3f9 57bd 8cfd 00bd a992 3e3d
00000240: 6eef 61bd beb3 4cbd 109a 9e3c 4a21 64bd
00000250: 63e8 55bd 16ee 5dbc c40c 09bd 2d9d 2ebd
00000260: 9cee 07bd 0c7e 453c bb90 e8ba 0c39 f33c
00000270: 291c 153d bca3 423d 37f8 3bbd 2ecb 313c
00000280: 955f 20bd af90 473c 6251 70bb 09e4 333d
00000290: dc7f fdbc ea92 87bc fbad 62bd 4c61 efbc
000002a0: c012 493c 8b48 fc3c 5630 553d 68bc 14bd
000002b0: 303b e03b 9f63 b0bb 59e5 95bc 3751 ee3c
000002c0: fb0c e6bc 304b 143d d428 eebc 52df 393d
000002d0: d718 493d c8de 88bc f18b 09bd 61e3 b43c
000002e0: 912b 0e3d 3db8 df3c b002 303d bec2 19bd
000002f0: 2c49 83bc 5460 983c a6b3 043d 0ff6 1ebd
00000300: 8e00 45bd 291b 65bd eca6 6abd 99d0 ca3c
00000310: 0455 cfbb 5b26 2139 fa6f 13bd 5715 cd3c
00000320: 2306 4c3b 3d7f 45bc d425 5e3d ae3c 5b3c
00000330: 2946 f0bc c6fd 66bd 014a b0bc 0a05 e13b
00000340: 8032 3ebd 6923 623d 6cbe 003d 1ba1 3a3d
00000350: 252d 003d ebf9 25bc b66e dd3c 1c6e b63c
00000360: 08ca f33a 60d5 dd3c 4e30 34bd 510e c8bc
00000370: 0ff3 963c cfb5 21bd 68d2 cc3b 9cfd f7bc
00000380: bd9a 5bbd c835 5a3c 095f 193c 7cda 09bb
00000390: 4868 97bc 92f5 623d bd7a 0d3d d2e5 f1bc
000003a0: 88ec ec3c e8cf 95bc 1f4a 19bd f775 55bb
000003b0: c967 2d3d 231b 29bc 250b 1abd 20ff 4ebd
000003c0: 6115 b93c afec b4bc 531d a33c cf7a 283d
000003d0: c73f 18bd 9573 553d 2fbe 02bd 98fd b6bc
000003e0: a3a9 d8bc 2ee0 23bd f627 163c c4e6 523c
000003f0: 4f31 f6bc e773 10bc ecb7 1bbd c19b 0ebc

conv4.bias f4 [64]
0.043088 -0.025714964 0.0020651345 -0.03560836 -0.02788584 0.01533612 0.050218727 0.019622166
-0.036841445 0.0521408 -0.042060904 0.033964835 0.023259932 -0.02990058 0.0019238044 0.026038367
0.022745509 0.021833725 0.029351193 0.03721595 0.0048361383 0.03141118 0.056156535 -0.043180354
-0.009569359 -0.03550462 -0.025086757 -0.051580235 -0.003631414 0.01545008 0.04172303 0.026119705
-0.017122094 0.0017953366 0.055970572 -0.048440486 0.02423058 -0.027435992 0.016630743 -0.021741493
0.00886665 -0.02385882 -0.039473098 -0.013499359 0.0029120876 0.026055638 -0.04522724 0.03594211
-0.0069599347 -0.053473193 -0.024262637 -0.0537125 0.02349848 0.006121743 0.027966488 0.007428587
-0.050412793 -0.0018618957 -0.045467176 -0.022203282 -0.010191699 0.053140137 0.023289206 -0.0262906
00000000: 0b7d 303d 30a8 d2bc 3557 073b 12da 11bd
00000010: d870 e4bc 5944 7b3c 27b2 4d3d aabe a03c
00000020: 0ee7 16bd 9791 553d 0e48 2cbd b61e 0b3d
00000030: 9d8b be3c 10f2 f4bc 2a28 fc3a 6a4e d53c
00000040: ca54 ba3c a4dc b23c ea71 f03c c16f 183d
00000050: 7878 9e3b 02a9 003d 6504 663d e2dd 30bd
00000060: cdc8 1cbc 4b6d 11bd be82 cdbc cc45 53bd
00000070: 04fd 6dbb 5522 7d3c c5e5 2a3d fef8 d53c
00000080: a243 8cbc 8051 eb3a 6641 653d 8869 46bd
00000090: 367f c63c 72c1 e0bc 323d 883c 371b b2bc
000000a0: 6d45 113c 9273 c3bc 8bae 21bd 6a2c 5dbc
000000b0: b9d8 3e3b a272 d53c 3340 39bd 0938 133d
000000c0: 2a10 e4bb b506 5bbd 70c2 c6bc a301 5cbd
000000d0: e27f c03c e798 c83b fa19 e53c 816b f33b
000000e0: a57d 4ebd da0a f4ba ca3b 3abd a8e3 b5bc
000000f0: 15fb 26bc 79a9 593d 01c9 be3c 625f d7bc

conv5.weight f4 [64, 64, 3, 3]
0.014014956 0.008367452 0.0148393465 0.0022612754 0.037730187 -0.009445671 0.008870722 0.02230108
0.0044806125 -0.038655363 -0.024639504 0.0058502094 0.004026385 0.0059571695 0.0016229271 0.026351241
0.035185397 -0.015085512 -0.020821637 -0.018463815 -0.0076437155 0.004307721 0.018239861 -0.039286435
0.02285651 0.0091226315 0.0071154432 -0.0030799098 -0.031025585 0.003969961 0.012894608 -0.026918678
-0.020573352 -0.030678185 -0.02148525 -0.02370646 -0.0016541011 0.010370509 -0.018507503 -0.014829708
0.041010246 0.03818339 0.004387754 -0.0024044397 -0.033695817 0.033792067 -0.042597845 0.019158732
-0.045460504 -0.021726985 0.022194229 0.026722273 0.029411176 -0.0032013261 0.036789063 -0.03897041
0.0017555541 0.022617146 -0.021532172 -0.015764311 -0.00029326486 0.007827342 0.014035361 -0.038832117
-0.042754695 -0.0023972357 -0.01110244 -0.029510602 -0.008226817 -0.015309351 -0.031167421 0.0032403918
-0.006520425 0.039795145 -0.036966942 -0.007803039 -0.03866013 -0.031773966 0.02606828 0.023069903
-0.02958431 0.0020642593 0.041326478 -0.015735393 0.017557984 0.035052445 -0.03295764 0.011379794
-0.017757414 0.027294343 0.0023199616 -0.006980975 0.008747569 0.032904446 -0.018320762 -0.039262682
0.022555545 -0.023865463 -0.01684594 0.03507795 -0.019529203 -0.0084137805 -0.018112022 0.0075982655
-0.0053585116 0.038017422 0.03601594 0.029562486 0.018615058 0.024153888 -0.024559148 -0.0076587135
-0.015381383 -0.01842079 -0.04038096 0.027372267 -0.00869787 0.0253352 -0.0023007495 0.03405234
-0.017380131 -0.006195416 -0.014919861 -0.03279965 -0.0034313756 -0.038902722 0.008456032 0.00400024
0.034685433 0.009172494 -0.008686808 0.017233126 0.034368884 -0.0138945505 0.010816262 -0.012953638
0.04299481 -0.025691338 0.017886236 0.040715605 -0.040142056 -0.042195383 0.03555731 -0.0033864228
0.038953412 0.038373634 -0.0016590267 0.00270052 0.03543181 0.005078883 -0.03863435 -0.035169013
-0.035183314 0.008605214 -0.034995373 0.012249035 0.030360296 -0.006188969 0.020252809 0.027734946
-0.03617487 -0.0173706 0.031858005 -0.022607524 -0.039292186 0.039630193 0.016478555 -0.0336223
0.010474585 0.012945726 0.011336551 -0.013522566 0.042502932 0.016128682 0.0043427492 0.014911169
-0.038266886 -0.021373017 0.0057349517 -0.006017428 -0.035545617 -0.011738373 -0.024855996 0.013124109
-0.01612772 0.02642175 -0.007657895 0.030332481 0.021805378 0.017625667 0.009767809 0.021520743
0.0056392946 0.02132664 -0.04272748 -0.028650833 -0.013709291 0.019689692 0.008178577 -0.036703475
0.036730565 -0.012664027 0.023921609 0.013754812 0.012140218 -0.020499662 -0.013818652 0.008251611
-0.030096624 -0.026369864 0.02815654 0.0067792945 0.03479145 0.013098292 0.034602106 0.015663465
-0.017101888 -0.03916407 0.039579894 0.014234475 0.016213065 0.036924377 0.013101011 -0.027896302
-0.0100253895 -0.016412625 -0.017121565 0.036837384 0.02036051 0.022491196 -0.019950652 0.002334847
0.033333357 -0.021414945 0.019944474 0.040425964 -0.03658881 -0.0369371 -0.015080454 -0.03469822
-0.03945114 -0.019918552 -0.010816552 0.011382583 0.026053878 -0.01421479 0.040705483 -0.01600283
0.0006337857 0.013735434 0.000640978 0.022872142 0.008976324 -0.034072403 0.019315323 -0.016517732
00000000: fc9e 653c a317 093c bb20 733c e831 143b
00000010: f88a 1a3d 04c2 1abc 8156 113c c1b0 b63c
00000020: 1ad2 923b 1655 1ebd c9d8 c9bc 1db3 bf3b
00000030: c4ef 833b 5c34 c33b 66b8 d43a 8fde d73c
00000040: 901e 103d 3929 77bc 2392 aabc 6d41 97bc
00000050: 2278 fabb c827 8d3b c36b 953c d0ea 20bd
00000060: 933d bb3c 1777 153c aa28 e93b 50d8 49bb
00000070: 5e29 febc 7216 823b e843 533c 8f84 dcbc
00000080: 7289 a8bc d150 fbbc d601 b0bc 0d34 c2bc
00000090: 6cce d8ba 11e9 293c 0c9d 97bc 4ef8 72bc
000000a0: 5cfa 273d 3066 1c3d 26c7 8f3b ce93 1dbb
000000b0: a004 0abd 8d69 0a3d 147b 2ebd c6f2 9c3c
000000c0: cb34 3abd cafc b1bc acd0 b53c abe8 da3c
000000d0: b5ef f03c 57cd 51bb 21b0 163d 709f 1fbd
000000e0: 9f1a e63a 9847 b93c 3d64 b0bc 2824 81bc
000000f0: 58c1 99b9 403e 003c 92f4 653c 6d0e 1fbd
00000100: 8c1f 2fbd f11a 1dbb 02e7 35bc 38c0 f1bc
00000110: c5c9 06bc 12d4 7abc d252 ffbc c15c 543b
00000120: 4aa9 d5bb 3c00 233d a66a 17bd a3b0 ffbb
00000130: 165a 1ebd 6b25 02bd 258d d53c 18fd bc3c
00000140: cb5a f2bc 8648 073b f445 293d 83e7 80bc
00000150: c3d5 8f3c 2793 0f3d 97fe 06bd 5172 3a3c
00000160: ff77 91bc 6398 df3c 7f0a 183b aac0 e4bb
00000170: f751 0f3c d0c6 063d 6c15 96bc e8d1 20bd
00000180: 68c6 b83c 8181 c3bc 7f00 8abc e6ad 0f3d
00000190: b5fb 9fbc f4d9 09bc aa5f 94bc dffa f83b
000001a0: 7496 afbb 28b8 1b3d 7385 133d 072d f23c
000001b0: 9b7e 983c 60de c53c 4430 c9bc f2f5 fabb
000001c0: 3202 7cbc 32e7 96bc 8166 25bd ce3b e03c
000001d0: 8381 0ebc c48b cf3c 2cc8 16bb 777a 0b3d
000001e0: c760 8ebc eb02 cbbb 6f72 74bc ed58 06bd
000001f0: eee0 60bb 7658 1fbd 2b8b 0a3c 7214 833b
00000200: 5012 0e3d 3a48 163c 1d53 0ebc 7c2c 8d3c
00000210: 63c6 0c3d f8a5 63bc b136 313c 7f3b 54bc
00000220: 531b 303d a476 d2bc 2886 923c 68c5 263d
00000230: ff6b 24bd 11d5 2cbd 8ba4 113d bfee 5dbb
00000240: 9d8d 1f3d ac2d 1d3d b373 d9ba 35fb 303b
00000250: f220 113d c26c a63b 0d3f 1ebd 620d 10bd
00000260: 611c 10bd e2fc 0c3c 4f57 0fbd 2db0 483c
00000270: 28b6 f83c d6cc cabb 38e9 a53c 6634 e33c
00000280: 1a2c 14bd ca4c 8ebc 8a7d 023d 6a33 b9bc
00000290: d8f0 20bd 4553 223d 09fe 863c 89b7 09bd
000002a0: 989d 2b3c 4f1a 543c f1bc 393c c18d 5dbc
000002b0: 8e17 2e3d 4c20 843c 9f4d 8e3b fa4d 743c
000002c0: bdbd 1cbd 7716 afbc 43ec bb3b d82d c5bb
000002d0: 4898 11bd 4e52 40bc cd9e cbbc 8106 573c
000002e0: 481e 84bc 6d72 d83c 14ef fabb d37b f83c
000002f0: 31a1 b23c b463 903c 2909 203c 454c b03c
00000300: d5c9 b83b 35b5 ae3c 0303 2fbd 27b5 eabc
00000310: ef9c 60bc 474c a13c 70ff 053c 6256 16bd
00000320: ca72 163d c77c 4fbc 40f7 c33c dd5b 613c
00000330: c4e7 463c e8ee a7bc a167 62bc c431 073c
00000340: 328d f6bc 9d05 d8bc 8ba8 e63c d824 de3b
00000350: 7b81 0e3d 389a 563c f0ba 0d3d ab50 803c
00000360: 4219 8cbc 816a 20bd 871e 223d b737 693c
00000370: 43d1 843c 043e 173d 9fa5 563c c986 e4bc
00000380: 8841 24bc c573 86bc 8642 8cbc cce2 163d
00000390: 16cb a63c 753f b83c 8d6f a3bc 3c04 193b
000003a0: 8f88 083d 656e afbc 9862 a33c b295 253d
000003b0: 26de 15bd 5b4b 17bd 0214 77bc b91f 0ebd
000003c0: 8597 21bd 3b2c a3bc e837 31bc 037e 3a3c
000003d0: f16e d53c 27e5 68bc cbba 263d 5e18 83bc
000003e0: a324 263a 960a 613c 4e07 283a 5c5e bb3c
000003f0: 6f11 133c 818f 0bbd 2b3b 9e3c 3250 87bc

conv5.bias f4 [64]
0.035082966 -0.0052142385 0.0323725 0.015280325 -0.038277254 -0.015132219 0.020793743 0.013689676
0.0025572414 0.022934694 0.033806216 -0.0021462468 0.022198398 -0.031248301 0.040209334 0.040006656
-0.02128442 -0.03915292 -0.027795745 0.007822424 -0.017338617 -0.041648354 -0.008241169 0.041083578
0.01409459 -0.0012036698 0.0045370464 -0.026741836 0.024835695 -0.020822577 0.03502928 0.024445888
0.027648818 0.040088493 -0.026812201 0.030887213 -0.021777323 0.0201164 -0.006884886 -0.022711616
0.009050462 0.0097775925 0.023384152 -0.021488434 0.0202258 0.020742822 0.02007934 0.019478485
0.016656231 -0.010729451 0.004799211 0.020656012 0.020476062 -0.00056514284 -0.019469392 -0.0130534
0.0029987833 -0.017719446 -0.02611084 -0.028678138 0.0068633463 -0.034393843 -0.00671703 0.0018167759
00000000: 28b3 0f3d 34dc aabb 0799 043d 545a 7a3c
00000010: 9cc8 1cbd 20ed 77bc a457 aa3c aa4a 603c
00000020: 6497 273b 8ae1 bb3c 6378 0a3d 0ca8 0cbb
00000030: 6ad9 b53c 70fc ffbc 8bb2 243d 05de 233d
00000040: aa5c aebc d05e 20bd e7b3 e3bc a029 003c
00000050: b709 8ebc 7797 2abd f805 07bc 4147 283d
00000060: ffec 663c 75c4 9dba 81ab 943b b211 dbbc
00000070: 3a74 cb3c 1c94 aabc dd7a 0f3d be42 c83c
00000080: c67f e23c d533 243d 43a5 dbbc 2e07 fd3c
00000090: 5b66 b2bc 26cb a43c 9c9a e1bb b60d babc
000000a0: 6448 143c 3232 203c 1f90 bf3c 8308 b0bc
000000b0: 94b0 a53c daec a93c 6e7d a43c 5891 9f3c
000000c0: a672 883c 94ca 2fbc b342 9d3b cc36 a93c
000000d0: 6abd a73c 1826 14ba 467e 9fbc eedd 55bc
000000e0: 3c87 443b 5f28 91bc 66e6 d5bc 6aee eabc
000000f0: ece5 e03b 8fe0 0cbd 881a dcbb e220 ee3a

conv6.weight f4 [64, 64, 3, 3]
-0.040655814 -0.034395434 -0.02288153 0.01655401 -0.0101280315 -0.009064238 -0.02585741 -0.038822334
-0.016422164 -0.0384676 -0.018262537 0.018819837 0.021461666 0.040519983 0.026445614 -0.036111314
0.031664465 -0.020370174 0.014771479 0.040781774 -0.026887132 -0.03777438 -0.02398968 0.03081162
-0.032891437 -0.028739551 0.02754983 -0.018051064 -0.021798095 -0.0410938 -0.005127524 0.011340278
-0.01150713 -0.03757342 -0.02198177 0.027631495 -0.018190425 -0.024531651 0.032719873 -0.035193436
0.022044327 -0.002717338 -0.0045372904 0.0023805553 0.032540727 -0.019598799 -0.027964309 0.0365296
-0.026879378 -0.027463637 0.03152422 0.030118199 -0.0036688142 -0.03658761 -0.031292148 0.03722508
-0.022490539 -0.03396763 0.036490258 -0.040075846 0.034171164 -0.019345503 0.0069382386 -0.010409431
-0.022231985 0.036329947 0.021892153 0.030593641 0.021076987 -0.022136338 -0.022293713 -0.025783265
-0.034578457 0.029753482 0.027424 0.019925056 -0.00039651175 0.028325059 -0.0016509541 -0.011032025
0.020524766 0.038429193 0.031214429 0.03685878 -0.00082081364 -0.011562791 3.4603116e-05 0.036362056
-0.029291239 -0.008108964 -0.022445185 -0.03643797 0.022112671 0.040112622 0.0042924834 -0.030872265
-0.026615215 0.023091597 0.036592502 -0.035104137 0.026025802 -0.03307791 -0.020015046 -0.037494905
-0.011902866 -0.0041984003 0.030627038 0.01781613 -0.001129924 -0.037093867 -0.017420812 -0.002012519
-0.0070399325 -0.0197171 0.0026405356 -0.03978585 0.022910217 0.038768336 -0.0045121936 0.035424355
-0.00504016 0.02391937 0.013058218 0.009874652 0.008034493 -0.006471133 -0.021482471 0.009175033
0.035152517 -0.0043324423 0.041260384 -0.03328038 0.026029166 0.012243057 -0.036550235 -0.005627452
-0.033740845 0.038685497 0.019599149 0.030604351 0.036653396 0.039567303 0.028871732 0.039627932
-0.004308488 -0.030170638 0.029680006 -0.030499179 -0.010490357 0.01974834 -0.030570071 0.009012173
0.009254885 -0.0072056097 0.0071019093 0.034170505 -0.004068752 -0.036373906 0.0165327 0.0018688733
0.029460311 -0.0054976447 0.019981457 -0.039050404 0.038282093 -0.018573185 -0.015819153 -0.028098732
0.0084615685 -0.021456957 -0.005531237 0.0062485607 -0.033676162 0.0015368023 0.02607114 -0.021384658
0.009770204 0.016912123 -0.04151383 -0.03800387 -0.024171783 -0.00066348043 -0.014223359 0.005552014
0.02846229 -0.0130543355 -0.031943534 -0.011191657 0.0341704 0.011044531 0.023040554 0.039584834
0.004784813 0.017538639 0.011827041 0.020197015 -0.017157575 0.0039351867 0.040172245 0.009552199
0.0050094347 0.03942475 0.029555012 -0.0015835719 -0.018477667 0.031128112 0.038694374 0.035776354
0.020809405 0.0015325205 0.015214268 0.0025454971 -0.036116324 0.0070984806 -0.035209507 -0.001967593
-0.036537893 -0.0071828896 -0.031693254 0.006065348 0.004321712 0.018874275 -0.0113422265 -0.037353303
-0.027974227 -0.038628712 0.025690353 0.0014385695 -0.037096802 -0.003298989 -0.006979245 0.008716169
-0.037690956 -0.024472838 -0.04145108 -0.027120749 0.03794042 -0.009523287 -0.025118366 -0.0273912
-0.039890595 0.019563375 0.011863024 0.0010465436 -0.04040922 0.0073032808 0.034151904 -0.004700033
-0.027779225 0.0027589297 0.036201894 0.009956307 0.018701008 -0.035420917 -0.039386388 -0.0016054772
00000000: b686 26bd 3ae2 0cbd 0c72 bbbc 469c 873c
00000010: 0bf0 25bc 2b82 14bc ebd2 d3bc 2b04 1fbd
00000020: c687 86bc 3490 1dbd 519b 95bc 0f2c 9a3c
00000030: 60d0 af3c 48f8 253d 79a4 d83c 75e9 13bd
00000040: 99b2 013d 5adf a6bc 1304 723c ca0a 273d
00000050: 6742 dcbc 4fb9 1abd 0186 c4bc a768 fc3c
00000060: 2cb9 06bd 356f ebbc 2eb0 e13c d3df 93bc
00000070: eb91 b2bc f951 28bd ca04 a8bb 93cc 393c
00000080: 6788 3cbc 96e6 19bd 1d13 b4bc 725b e23c
00000090: 1604 95bc 9af6 c8bc 4605 063d fe26 10bd
000000a0: 4e96 b43c 5e15 32bb 8dad 94bb 1703 1c3b
000000b0: 6d49 053d a98d a0bc 6815 e5bc 10a0 153d
000000c0: 2432 dcbc 6cfb e0bc 8a1f 013d 71ba f63c
000000d0: 7d70 70bb e4dc 15bd 322c 00bd 5379 183d
000000e0: 143e b8bc a421 0bbd cf76 153d 9226 24bd
000000f0: 10f7 0b3d 767a 9ebc 2a5a e33b 518c 2abc
00000100: da1f b6bc b6ce 143d 2c57 b33c 849f fa3c
00000110: a5a9 ac3c 4457 b5bc 4ea1 b6bc 6d37 d3bc
00000120: 24a2 0dbd 93bd f33c 4ca8 e03c df39 a33c
00000130: e8e2 cfb9 f409 e83c d464 d8ba abbf 34bc
00000140: 8e23 a83c ee67 1d3d 67b5 ff3c 3bf9 163d
00000150: df2b 57ba dc71 3dbc d022 1138 61f0 143d
00000160: 2ef4 efbc 76db 04bc f7de b7bc fb3f 15bd
00000170: a225 b53c 224d 243d f6a7 8c3b d5e7 fcbc
00000180: 2708 dabc 972a bd3c 05e2 153d 5bc9 0fbd
00000190: 1034 d53c b47c 07bd 98f6 a3bc 4294 19bd
000001a0: 3d04 43bc bc92 89bb 8ee5 fa3c 22f3 913c
000001b0: f519 94ba bdef 17bd 17b6 8ebc 77e4 03bb
000001c0: 3caf e6bb c185 a1bc d60c 2d3b 7df6 22bd
000001d0: 35ae bb3c 8ccb 1e3d 06db 93bb 2119 113d
000001e0: ed27 a5bb 8ef2 c33c 23f2 553c 4bc9 213c
000001f0: 1ba3 033c cc0b d4bb 02fc afbc e152 163c
00000200: 16fc 0f3d 29f7 8dbb a600 293d 0251 08bd
00000210: 1e3b d53c 1a97 483c b3b5 15bd 7d66 b8bb
00000220: d733 0abd af74 1e3d 658e a03c fab5 fa3c
00000230: df21 163d 5311 223d 6984 ec3c e650 223d
00000240: 382e 8dbb 6a28 f7bc 7c23 f33c 6ad9 f9bc
00000250: bfdf 2bbc 45c7 a13c 166e fabc cba7 133c
00000260: cda1 173c 091d ecbb 22b7 e83b 5ff6 0b3d
00000270: 2a53 85bb cefc 14bd 966f 873c fbf4 f43a
00000280: c056 f13c 9625 b4bb 27b0 a33c 51f3 1fbd
00000290: afcd 1c3d cb26 98bc 2b97 81bc 502f e6bc
000002a0: 64a2 0a3c 80c6 afbc 613f b5bb bac0 cc3b
000002b0: 04f0 09bd 876e c93a 2593 d53c e12e afbc
000002c0: 3513 203c 4b8b 8a3c 680a 2abd f2a9 1bbd
000002d0: e703 c6bc 6bed 2dba 1709 69bc abed b53b
000002e0: c029 e93c dae1 55bc 39d7 02bd 365d 37bc
000002f0: 43f6 0b3d 1ff4 343c 8bbf bc3c b523 223d
00000300: ecc9 9c3b 31ad 8f3c 35c6 413c 3674 a53c
00000310: 0b8e 8cbc bdf2 803b a78b 243d d480 1c3c
00000320: 2f26 a43b d97b 213d 5a1d f23c db8f cfba
00000330: 7a5e 97bc 6200 ff3c fe7d 1e3d 3a8a 123d
00000340: 7c78 aa3c dbde c83a 4445 793c 5bd2 263b
00000350: b6ee 13bd 5f9a e83b d837 10bd bcf2 00bb
00000360: c2a8 15bd 725e ebbb c9d0 01bd d4bf c63b
00000370: 269d 8d3b 399e 9a3c bfd4 39bc c7ff 18bd
00000380: 352a e5bc 2439 1ebd 9374 d23c 628e bc3a
00000390: d1f2 17bd da33 58bb 27b2 e4bb 43ce 0e3c
000003a0: d561 1abd 437b c8bc 9cc8 29bd 552c debc
000003b0: 6a67 1b3d 9007 1cbc 08c5 cdbc 8363 e0bc
000003c0: 5264 23bd 5f43 a03c 215d 423c 2d2c 893a
000003d0: 2384 25bd 5c50 ef3b dee2 0b3d bc02 9abb
000003e0: 4291 e3bc 29cf 343b 7048 143d c71f 233c
000003f0: db32 993c 8615 11bd 9f53 21bd e06e d2ba

conv6.bias f4 [64]
0.010437012 0.03843242 -0.019688401 0.000858155 -0.001185176 0.0068604858 0.0035627517 -0.025566414
0.0017467481 -0.035382416 -0.03594596 0.0017004963 -0.0051172283 0.005835681 -0.03443829 0.00951926
0.0019553856 0.008960228 -0.008998644 0.03732663 0.027110577 -0.0027047677 -0.021668518 0.022086617
-0.017056737 0.019848105 -0.014034295 0.008398469 0.01983549 -0.029359382 0.020508219 0.0039636362
-0.01524671 -0.038970582 0.019176884 -0.016594537 -0.014012243 -0.007818124 -0.03977298 0.03505932
0.028822148 0.035492692 0.029717255 0.016764315 0.015573352 0.014191763 0.028781112 -0.0018576765
-0.03342114 0.00532913 -0.033561617 0.036804873 -0.022259131 0.016291255 -0.037312802 -0.0058219307
-0.0068290257 -0.01455283 0.015622005 -0.038829025 -0.012458068 -0.023896886 0.023821142 0.03347401
00000000: 0000 2b3c 506b 1d3d 9249 a1bc cff5 603a
00000010: e857 9bba edcd e03b 0e7d 693b a870 d1bc
00000020: 24f3 e43a 27ed 10bd 123c 13bd 30e3 de3a
00000030: 6cae a7bb 3e39 bf3b 2a0f 0dbd acf6 1b3c
00000040: ed25 003b eccd 123c 0c6f 13bc cfe3 183d
00000050: 0017 de3c 7942 31bb 2d82 b1bc feee b43c
00000060: 92ba 8bbc 7e98 a23c 1af0 65bc bb99 093c
00000070: 0a7e a23c 1683 f0bc da00 a83c 64e1 813b
00000080: 56cd 79bc 9e9f 1fbd d718 9d3c 44f1 87bc
00000090: 9b93 65bc 9717 00bc fee8 22bd 5d9a 0f3d
000000a0: 6d1c ec3c c960 113d 9a71 f33c 5155 893c
000000b0: 5f27 7f3c 9184 683c 5ec6 eb3c 487d f3ba
000000c0: 9be4 08bd fc9f ae3b e877 09bd b5c0 163d
000000d0: c858 b6bc 3d75 853c 4fd5 18bd e5c5 bebb
000000e0: 05c6 dfbb fe6e 6ebc 70f3 7f3c 2f0b 1fbd
000000f0: ed1c 4cbc 67c3 c3bc 8e24 c33c 0b1c 093d

conv7.weight f4 [1, 64, 3, 3]
-0.026453272 0.03904254 0.031204222 0.0024172624 0.025665153 0.005880959 -0.0103549445 -0.02335601
0.050386995 0.052551594 0.104661405 0.032697693 0.10717066 0.07081645 0.084135436 0.06280786
0.06253379 0.044302586 0.012403208 0.06426252 0.07335026 0.021664532 0.07456499 0.018061282
0.03434038 0.041469745 0.08134807 0.049725194 0.04499967 0.072015695 0.059790023 0.061117094
0.029189123 0.04221104 0.07580059 0.057238895 -0.018001787 0.044610426 0.044781443 0.037759203
0.02191114 0.041372724 0.042128008 0.041249465 0.015350672 0.053978145 0.04316679 0.05758184
0.04779684 -0.0106428005 0.014354274 -0.003433658 0.048306216 0.049836565 -0.04436592 -0.045486927
-0.05272194 -0.07661682 -0.07598515 -0.067985155 -0.011037075 -0.045970082 -0.018386314 0.0015215607
-0.013205366 0.010880809 -0.0024747907 0.03204922 0.0010863829 0.020199226 -0.02552737 -0.02752251
-0.024707366 -0.041496523 0.014106422 0.03320614 0.004306839 0.032218274 0.006178415 0.001473746
-0.022596475 0.09979075 0.04742991 0.084490016 0.09439035 0.054548882 0.03013338 0.08761597
0.096717395 0.032209292 0.011671611 0.010614064 -0.019711174 -0.037699282 -0.02465905 0.0058547165
-0.033715483 -0.016708385 0.021429481 0.0760263 0.03080302 0.07865199 0.09052152 0.08721125
0.07019103 0.025156897 0.10094075 0.06249332 0.033365637 0.031100634 0.015828984 -0.016869513
-0.012763467 -0.006032815 0.028845685 0.003089836 -0.007804298 -0.012387382 0.010115936 0.012741196
0.004408854 0.018322926 0.015121944 0.040347043 0.00985582 0.047194887 0.065151595 0.09587717
0.029073993 0.034875777 0.062294766 0.054987647 0.096466735 0.03660931 0.04679624 0.0015843943
-0.014810532 -0.033166874 -0.014411452 0.036530517 0.013879164 0.02859151 0.020820394 -0.011592207
-0.005088646 0.031622946 0.04033249 0.054675214 0.00519415 0.0034705878 0.018962199 0.0008889739
0.025223862 0.016687464 -0.009024027 -0.00054972176 -0.04331772 -0.03507456 -0.011273072 -0.021723736
-0.03178231 0.029144457 0.0016073749 0.027296508 0.03683667 0.01698509 -0.0013149217 0.04157096
0.014635162 -0.027112331 -0.01562492 -0.0067369435 0.010922411 -0.0031020257 0.023469605 0.05721551
0.06035248 -0.011578069 -0.013039795 0.012897749 0.06027747 0.03096603 -0.007399437 0.04595499
0.052917626 0.009309063 0.040957008 -0.010847729 0.0052784244 0.016182989 0.032338224 0.007774202
0.051218808 0.09414431 0.05913568 0.07940218 0.08396958 0.074571416 0.021140143 0.07665823
0.059707485 0.015651446 0.045627914 0.046180196 0.019510295 0.082693934 0.048748147 -0.017595008
-0.029242782 -0.006429717 -0.012719146 -0.024679206 0.029368045 0.01086615 -0.020904005 -0.04135079
0.04633236 0.047139022 0.04444565 -0.015299754 0.042894196 0.052070864 -0.02435614 0.02715177
-0.025084672 0.07289185 0.045553822 0.031276613 0.10814087 0.06875143 0.115487844 0.07728365
0.041406885 0.092501 0.005219496 -0.0060894038 0.035705123 -0.018777698 0.033761103 0.037859876
0.010148895 0.011295077 -0.036217973 0.08400075 0.064754285 0.0805416 0.082777224 0.111436486
0.06756227 0.03496327 0.037665207 0.044763874 0.003433116 0.052542925 0.055471834 0.04114742
00000000: 88b4 d8bc 12eb 1f3d ff9f ff3c ef6a 1e3b
00000010: ba3f d23c 0fb5 c03b c9a7 29bc 1a55 bfbc
00000020: 9862 4e3d 5740 573d b858 d63d 04ee 053d
00000030: 4a7c db3d 3708 913d 334f ac3d 68a1 803d
00000040: b711 803d a176 353d d336 4b3c 119c 833d
00000050: a938 963d d179 b13c 88b5 983d 41f5 933c
00000060: 80a8 0c3d 2edc 293d d199 a63d a5ac 4b3d
00000070: 9351 383d f77c 933d 62e6 743d eb55 7a3d
00000080: 071e ef3c 7ce5 2c3d 573d 9b3d 5573 6a3d
00000090: 7c78 93bc 6cb9 363d bf6c 373d 65a9 1a3d
000000a0: fe7e b33c 7276 293d 6b8e 2c3d 33f5 283d
000000b0: 6381 7b3c 3018 5d3d a9cf 303d efda 6b3d
000000c0: 9fc6 433d 245f 2ebc 302e 6b3c 3907 61bb
000000d0: bddc 453d 6d21 4c3d 0ab9 35bd 8050 3abd
000000e0: f6f2 57bd 48e9 9cbd 1a9e 9bbd cd3b 8bbd
000000f0: d9d4 34bc 204b 3cbd e59e 96bc 1b6f c73a
00000100: 525b 58bc 6c45 323c 1930 22bb 0b46 033d
00000110: f664 8e3a d978 a53c c61e d1bc e376 e1bc
00000120: 1a67 cabc 42f8 29bd 9f1e 673c 2903 083d
00000130: 6220 8d3b 4ff7 033d 4d74 ca3b b62a c13a
00000140: 3e1c b9bc 185f cc3d de45 423d 1a09 ad3d
00000150: ba4f c13d a66e 5f3d 47da f63c 0070 b33d
00000160: c513 c63d e4ed 033d 493a 3f3c 9ce6 2d3c
00000170: 5479 a1bc 906a 1abd c701 cabc ecd8 bf3b
00000180: 3f19 0abd 06e0 88bc e18c af3c adb3 9b3d
00000190: 9d56 fc3c 4b14 a13d 5963 b93d d09b b23d
000001a0: 51c0 8f3d d615 ce3c 06ba ce3d fff8 7f3d
000001b0: 68aa 083d c2c6 fe3c c9ab 813c ef31 8abc
000001c0: dc1d 51bc ecae c5bb c94d ec3c d97e 4a3b
000001d0: 32bb ffbb 72f4 4abc 50bd 253c 73c0 503c
000001e0: 2678 903b f619 963c 08c2 773c f142 253d
000001f0: 4e7a 213c 6d4f 413d 336e 853d 405b c43d
00000200: 952c ee3c e7d9 0e3d cc28 7f3d ba3a 613d
00000210: 5a90 c53d a5f3 153d 6aad 3f3d 73ab cf3a
00000220: e0a7 72bc fdd9 07bd 031e 6cbc 06a1 153d
00000230: 6f65 633c be38 ea3c 888f aa3c 3ded 3dbc
00000240: a8be a6bb 1087 013d ae33 253d 1ef3 5f3d
00000250: b033 aa3b cd72 633b 9d56 9b3c 070a 693a
00000260: 46a2 ce3c 26b4 883c 83d9 13bc 341b 10ba
00000270: ec6d 31bd 58aa 0fbd b1b2 38bc faf5 b1bc
00000280: 2b2e 02bd 5bc0 ee3c 8dae d23a ed9c df3c
00000290: 0ce2 163d 5124 8b3c 7359 acba 5046 2a3d
000002a0: 52c8 6f3c ae1a debc aaff 7fbc 94c1 dcbb
000002b0: eaf3 323c 5b4b 4bbb 5443 c03c d05a 6a3d
000002c0: 2934 773d f1b1 3dbc dda4 55bc 1551 533c
000002d0: 82e5 763d 79ac fd3c fa76 f2bb 4d3b 3c3d
000002e0: 27c0 583d 0a85 183c 89c2 273d acba 31bc
000002f0: a2f6 ac3b 3092 843c 1675 043d bcbe fe3b
00000300: d0ca 513d bbce c03d 4138 723d 9c9d a23d
00000310: 3ef8 ab3d e6b8 983d 182e ad3c fdfe 9c3d
00000320: d68f 743d 7637 803c 56e4 3a3d 7227 3d3d
00000330: 0ed4 9f3c 705b a93d 23ac 473d 6823 90bc
00000340: 8f8e efbc 60b0 d2bb f763 50bc 0c2c cabc
00000350: 4195 f03c f007 323c e03e abbc 725f 29bd
00000360: 00c7 3d3d d914 413d a40c 363d d2ab 7abc
00000370: d3b1 2f3d 4248 553d 8786 c7bc 646d de3c
00000380: 5f7e cdbc 5248 953d a596 3a3d e81b 003d
00000390: f678 dd3d 8dcd 8c3d e484 ec3d e446 9e3d
000003a0: 449a 293d 2a71 bd3d 4e08 ab3b 9f89 c7bb
000003b0: 893f 123d b0d3 99bc 1549 0a3d f512 1b3d
000003c0: 8d47 263c fd0e 393c 4c59 14bd 9608 ac3d
000003d0: e59d 843d fff2 a43d 1b87 a93d d038 e43d
000003e0: 165e 8a3d a535 0f3d d546 1a3d 535a 373d
000003f0: 21fe 603b 4037 573d 6f36 633d 328a 283d

bn1.weight f4 [8]
0.093742155 0.77422893 0.7408049 0.22590567 0.7924598 0.41527185 0.28755522 0.5376638
00000000: e3fb bf3d de33 463f 64a5 3d3f d153 673e
00000010: a5de 4a3f 839e d43e 703a 933e 56a4 093f

bn1.bias f4 [8]
0.00036012204 0.0052484153 9.4908646e-05 -0.0012959443 0.0059603597 -0.00012490354 0.00011530813 0.001059584
00000000: c3ce bc39 e6fa ab3b b109 c738 addc a9ba
00000010: 1f4f c33b 8af8 02b9 95d1 f138 bde1 8a3a

bn1.running_mean f4 [8]
26.367706 -66.17494 79.67777 68.25669 -136.03818 25.950281 19.86788 -33.43101
00000000: 10f1 d241 9259 84c2 055b 9f42 6d83 8842
00000010: c609 08c3 2d9a cf41 6bf1 9e41 5bb9 05c2

bn1.running_var f4 [8]
245.19034 914.60504 1322.7019 1054.1138 3801.7263 185.18274 152.48735 352.5069
00000000: ba30 7543 b9a6 6444 7656 a544 a4c3 8344
00000010: 9f9b 6d45 c82e 3943 c37c 1843 e240 b043

bn2.weight f4 [16]
0.3771146 0.86323094 0.5700439 0.66582257 0.73664474 0.72451 0.55867666 0.73164713
0.62402385 0.3939811 0.078167096 0.8623775 0.88903487 0.028245917 0.5657238 0.48103577
00000000: 2a15 c13e b4fc 5c3f 66ee 113f 5973 2a3f
00000010: c094 3c3f 7d79 393f 6f05 0f3f 3a4d 3b3f
00000020: 07c0 1f3f e4b7 c93e 1216 a03d c6c4 5c3f
00000030: ca97 633f fb63 e73c 46d3 103f 524a f63e

bn2.bias f4 [16]
0.00068487343 -0.0013215411 0.00066594104 0.0009907587 -0.0017003143 -0.0012030711 -0.004187868 0.0017118952
-0.0015543838 0.00018577169 0.0021058104 -0.001530205 0.0027709769 -8.534278e-05 0.00037341978 0.0017437899
00000000: 1489 333a 9037 adba 8c92 2e3a 58dc 813a
00000010: 15dd deba 5eb0 9dba 623a 89bb ac61 e03a
00000020: 77bc cbba b5cb 4239 a301 0a3b 2991 c8ba
00000030: 4799 353b 0efa b2b8 8ec7 c339 e18f e43a

bn2.running_mean f4 [16]
0.041556414 -0.14212711 0.1381748 -0.05096553 -0.31851602 -0.20465538 -0.22946663 -0.08530001
-0.055110518 -0.11420554 -0.15466015 -0.22752553 0.15707341 -0.4107261 0.079331696 -0.3257993
00000000: 0f37 2a3d c589 11be b27d 0d3e 3bc1 50bd
00000010: 8814 a3be 2e91 51be 4df9 6abe c6b1 aebd
00000020: 91bb 61bd 98e4 e9bd 3b5f 1ebe 74fc 68be
00000030: dad7 203e b14a d2be a878 a23d 2acf a6be

bn2.running_var f4 [16]
0.07691098 0.109021656 0.02652001 0.0278962 0.07763907 0.04815291 0.14135864 0.04159191
0.057698153 0.032779362 0.16443264 0.054671112 0.0766044 0.12456019 0.03549658 0.19999142
00000000: 8183 9d3d bf46 df3d 7e40 d93c 9286 e43c
00000010: 3c01 9f3d fc3b 453d 52c0 103e 475c 2a3d
00000020: e654 6c3d a743 063d 0861 283e d1ee 5f3d
00000030: c5e2 9c3d 6a19 ff3d dd64 113d 8dca 4c3e

bn3.weight f4 [32]
0.12899067 0.6609616 0.4671775 0.6259578 0.7846243 0.9974741 0.98645216 0.45523405
0.95026904 0.03917113 0.12451517 0.4801695 0.36871383 0.21096799 0.25061882 0.89946586
0.37606525 0.6594968 0.47647443 0.49604335 0.7966124 0.12566087 0.78506035 0.08057599
0.13125785 0.70346165 0.16727985 0.1168838 0.65770864 0.46548745 0.9062966 0.4289518
00000000: 2116 043e c834 293f e431 ef3e c53e 203f
00000010: 23dd 483f 765a 7f3f 2188 7c3f 7014 e93e
00000020: d544 733f e871 203d cf01 ff3d c7d8 f53e
00000030: 0fc8 bc3e fe07 583e 1c51 803e 6543 663f
00000040: a08b c03e c8d4 283f 75f4 f33e 65f9 fd3e
00000050: caee 4b3f 3ead 003e b7f9 483f 0605 a53d
00000060: 7568 063e 1016 343f 694b 2b3e c660 ef3d
00000070: 985f 283f 5f54 ee3e 0e03 683f 929f db3e

bn3.bias f4 [32]
-0.0017851862 0.0007656229 -0.00067143823 9.782385e-05 -4.6969573e-05 0.0044932575 0.003526544 8.1517785e-05
0.0043645375 -0.00027065055 0.0008030275 0.0009144613 -0.00065911247 -0.0006537386 -0.002184221 0.003064865
0.0010041123 0.0011377209 0.0018693465 -0.0007557991 0.00073406217 -7.703005e-05 -0.0008035796 -1.9118506e-05
0.00023926824 0.00062855385 0.0011652014 -0.00026164326 -0.0003327206 0.00020837787 0.001197275 -0.0015626411
00000000: e9fc e9ba 15b4 483a 7503 30ba c826 cd38
00000010: 3201 45b8 2d3c 933b 971d 673b 87f4 aa38
00000020: 6504 8f3b 1ae6 8db9 4382 523a 76b8 6f3a
00000030: 4ac8 2cba a85f 2bba 2625 0fbb e7db 483b
00000040: 6b9c 833a 941f 953a dc04 f53a d220 46ba
00000050: 146e 403a 318b a1b8 50a7 52ba ae60 a0b7
00000060: 14e4 7a39 89c5 243a acb9 983a 2a2d 89b9
00000070: 0171 aeb9 0280 5a39 e2ed 9c3a 89d1 ccba
